Episode:       3396
Start episode: 0
Frames:        295440
Mean reward:   98.010994
Mean success:  0.970000
Mean collision:  0.030000
Epsilon:       0.020000
Duration:      14h 0min 12sec
TransformerDqn(
  (embedder): CartPoleEmbedder(
    (layer1): Sequential(
      (0): Linear(in_features=362, out_features=256, bias=True)
      (1): ReLU()
      (2): Dropout(p=0.1, inplace=False)
    )
    (layer2): Sequential(
      (0): Linear(in_features=256, out_features=256, bias=True)
      (1): ReLU()
      (2): Dropout(p=0.1, inplace=False)
    )
    (layer3): Linear(in_features=256, out_features=256, bias=True)
    (layer4): Linear(in_features=362, out_features=256, bias=True)
  )
  (pos_encoder): PositionalEncoding(
    (dropout): Dropout(p=0.1, inplace=False)
  )
  (encoder_layer): StableTransformerLayer(
    (gate_mha): GRUGate(
      (linear_w_r): Linear(in_features=256, out_features=256, bias=False)
      (linear_u_r): Linear(in_features=256, out_features=256, bias=False)
      (linear_w_z): Linear(in_features=256, out_features=256, bias=True)
      (linear_u_z): Linear(in_features=256, out_features=256, bias=False)
      (linear_w_g): Linear(in_features=256, out_features=256, bias=False)
      (linear_u_g): Linear(in_features=256, out_features=256, bias=False)
    )
    (gate_mlp): GRUGate(
      (linear_w_r): Linear(in_features=256, out_features=256, bias=False)
      (linear_u_r): Linear(in_features=256, out_features=256, bias=False)
      (linear_w_z): Linear(in_features=256, out_features=256, bias=True)
      (linear_u_z): Linear(in_features=256, out_features=256, bias=False)
      (linear_w_g): Linear(in_features=256, out_features=256, bias=False)
      (linear_u_g): Linear(in_features=256, out_features=256, bias=False)
    )
    (self_attn): MultiheadAttention(
      (out_proj): Linear(in_features=256, out_features=256, bias=True)
    )
    (linear1): Linear(in_features=256, out_features=128, bias=True)
    (dropout): Dropout(p=0.1, inplace=False)
    (linear2): Linear(in_features=128, out_features=256, bias=True)
    (norm1): LayerNorm((256,), eps=1e-05, elementwise_affine=True)
    (norm2): LayerNorm((256,), eps=1e-05, elementwise_affine=True)
    (dropout1): Dropout(p=0.1, inplace=False)
    (dropout2): Dropout(p=0.1, inplace=False)
  )
  (encoder): TransformerEncoder(
    (layers): ModuleList(
      (0): StableTransformerLayer(
        (gate_mha): GRUGate(
          (linear_w_r): Linear(in_features=256, out_features=256, bias=False)
          (linear_u_r): Linear(in_features=256, out_features=256, bias=False)
          (linear_w_z): Linear(in_features=256, out_features=256, bias=True)
          (linear_u_z): Linear(in_features=256, out_features=256, bias=False)
          (linear_w_g): Linear(in_features=256, out_features=256, bias=False)
          (linear_u_g): Linear(in_features=256, out_features=256, bias=False)
        )
        (gate_mlp): GRUGate(
          (linear_w_r): Linear(in_features=256, out_features=256, bias=False)
          (linear_u_r): Linear(in_features=256, out_features=256, bias=False)
          (linear_w_z): Linear(in_features=256, out_features=256, bias=True)
          (linear_u_z): Linear(in_features=256, out_features=256, bias=False)
          (linear_w_g): Linear(in_features=256, out_features=256, bias=False)
          (linear_u_g): Linear(in_features=256, out_features=256, bias=False)
        )
        (self_attn): MultiheadAttention(
          (out_proj): Linear(in_features=256, out_features=256, bias=True)
        )
        (linear1): Linear(in_features=256, out_features=128, bias=True)
        (dropout): Dropout(p=0.1, inplace=False)
        (linear2): Linear(in_features=128, out_features=256, bias=True)
        (norm1): LayerNorm((256,), eps=1e-05, elementwise_affine=True)
        (norm2): LayerNorm((256,), eps=1e-05, elementwise_affine=True)
        (dropout1): Dropout(p=0.1, inplace=False)
        (dropout2): Dropout(p=0.1, inplace=False)
      )
    )
  )
  (output_layer): Linear(in_features=256, out_features=5, bias=True)
)